teaching/deep_learning/our_model.tar (torch, 4767 bytes, 3 tensors)

linear1.weight f4 [200, 2]
0.1634675 -0.67120945 -0.2418442 0.6767406 -0.22682215 -0.037500564 -0.22283106 -0.6531634
-0.053166058 0.098466024 0.70411056 0.7759886 0.5020676 0.09796883 -0.29908642 0.31674427
0.64729637 -0.55367917 0.38210094 0.64860046 0.40825883 -0.7693664 0.110871434 -0.21837083
-0.19146691 -0.15374324 0.6073702 -0.14866945 0.16345851 -0.5292228 0.32734755 -0.18874426
-0.016909016 -0.6911223 0.26581824 0.49333903 -0.3673443 -0.24562076 0.70524836 -0.6795686
-0.6856081 -0.051728103 0.26108268 -0.5976488 0.8396856 -0.53910834 0.21245472 0.37413627
-0.67885923 0.24385762 0.5358023 0.3345378 0.063353024 -0.023276158 -0.28486827 0.06509454
0.5450631 -0.3355409 0.3212723 0.1617326 0.07730211 0.48062825 -0.19663577 0.45013
-0.65326464 -0.14811027 0.2425284 0.033482984 0.24996106 0.2874131 0.0676792 -0.6145135
0.09338567 -0.4920916 0.011738308 -0.102638125 0.3950785 0.4051621 -0.49910527 0.537144
0.24709156 -0.23950593 -0.11208466 0.6063739 0.35211724 -0.48964804 -0.7354229 -0.5378599
-0.35665846 -0.1322928 -0.42504895 0.67930484 0.21621008 -0.47892457 0.611311 -0.5863926
0.26211086 -0.61612016 0.3710573 -0.050960492 -0.44883478 0.41823855 -0.15178475 0.5865502
-0.54288965 -0.42719564 -0.14199054 -0.6266179 -0.71541417 -0.41921893 -0.5237441 0.5771885
0.2406043 -0.20575985 0.38436204 0.15329754 0.28307518 -0.17605264 -0.7475096 0.66480756
0.42959923 0.44177026 -0.55956805 -0.6066426 -0.5251506 0.60529757 0.09391763 0.55383307
-0.2522821 -0.0066271224 0.11154583 0.6961831 0.14194298 -0.4661455 0.13578618 0.6702695
-0.75134164 0.35444695 0.47606373 0.41227528 0.6116416 0.0235236 0.20016173 0.013227524
0.30094397 -0.02610475 -0.22969493 0.51307714 -0.124162525 0.3777721 0.0146837 -0.37723008
0.4627767 0.5332768 -0.6106543 0.26396763 0.010015931 0.4560823 0.46445945 -0.12747297
-0.19762975 0.3379689 -0.40244004 0.21987815 0.6109971 0.39940715 -0.11338687 0.01061075
0.22181663 -0.1463154 0.40637532 -0.43331164 -0.6167308 0.12551442 -0.09896435 0.28655604
0.60632795 0.17303617 0.38183174 -0.5774195 -0.6492892 0.8303362 -0.83160895 -0.6760103
-0.5790415 -0.6549054 0.48408568 0.19136706 0.55244017 0.17984883 0.08183539 0.20667051
-0.4375008 -0.2537979 0.17559826 0.5367837 0.06082046 0.054958932 0.5054681 0.5446673
-0.009798475 -0.53916925 0.43260765 0.32315332 0.15183392 -0.33216098 0.7246033 0.56088465
-0.15127628 -0.30150887 -0.027235555 0.11397394 0.37996984 -0.5551242 0.29625142 0.33291745
-0.21631852 0.46072885 -0.49042937 0.54506534 0.14321914 -0.32942125 0.22034325 -0.5004449
0.43481618 0.5816631 0.5806354 -0.7031028 0.4488114 0.040335424 0.46498373 0.28303465
0.15050825 -0.52666175 0.016109938 0.647924 0.17380288 0.28686962 -0.051794156 -0.5903339
0.621086 0.6304028 -0.040669203 -0.087880775 0.65235704 0.2875959 -0.26236847 0.015306222
0.24490985 -0.12051582 0.021463133 0.62652326 -0.05077276 -0.15053064 -0.79835254 0.5705155
00000000: 0664 273e 62d4 2bbf 02a6 77be df3e 2d3f
00000010: 1144 68be 319a 19bd d32d 64be b735 27bf
00000020: a7c4 59bd 8ea8 c93d 9740 343f 30a7 463f
00000030: 8187 003f e2a3 c83d db21 99be 4e2c a23e
00000040: 37b5 253f ebbd 0dbf bca2 c33e ae0a 263f
00000050: 4d07 d13e 32f5 44bf 9010 e33d 9a9c 5fbe
00000060: e70f 44be de6e 1dbe 9d7c 1b3f ce3c 18be
00000070: ab61 273e 257b 07bf 199a a73e 2d46 41be
00000080: c784 8abc 64ed 30bf 5419 883e ef96 fc3e
00000090: 8d14 bcbe 0284 7bbe 288b 343f 35f8 2dbf
000000a0: 0384 2fbf d9e0 53bd a1ac 853e 83ff 18bf
000000b0: a3f5 563f 0103 0abf bb8d 593e ca8e bf3e
000000c0: b8c9 2dbf d0b5 793e 572a 093f 8a48 ab3e
000000d0: 3bbf 813d a4ad bebc 41da 91be 4950 853d
000000e0: 4189 0b3f 04cc abbe ce7d a43e 3b9d 253e
000000f0: 9250 9e3d e814 f63e e35a 49be 7077 e63e
00000100: 5a3c 27bf 38aa 17be 5d59 783e 7425 093d
00000110: cbf5 7f3e cf27 933e 649b 8a3d c250 1dbf
00000120: fc40 bf3d 6ef3 fbbe 0852 403c f033 d2bd
00000130: bb47 ca3e 6871 cf3e ba8a ffbe 4582 093f
00000140: 9205 7d3e 0b41 75be a48c e5bd 523b 1b3f
00000150: b648 b43e 26b3 fabe ad44 3cbf 30b1 09bf
00000160: f09b b6be c477 07be 04a0 d9be ece6 2d3f
00000170: 2d66 5d3e 9a35 f5be e17e 1c3f d31d 16bf
00000180: 6533 863e 0dba 1dbf 39fb bd3e f3bb 50bd
00000190: accd e5be 5d23 d63e 766d 1bbe 2728 163f
000001a0: d1fa 0abf 63b9 dabe f865 11be 086a 20bf
000001b0: 6225 37bf dda3 d6be 1814 06bf a0c2 133f
000001c0: f960 763e b6b2 52be 1acb c43e 08fa 1c3e
000001d0: 3bef 903e 2547 34be ca5c 3fbf d430 2a3f
000001e0: 6ef4 db3e b62f e23e da3f 0fbf ee4c 1bbf
000001f0: 4570 06bf c8f4 1a3f e357 c03d 01c8 0d3f
00000200: 1f2b 81be 5528 d9bb 2472 e43d 0e39 323f
00000210: 8059 113e 9faa eebe 880b 0b3e c896 2b3f
00000220: ed57 40bf 127a b53e a0be f33e bf15 d33e
00000230: 8b94 1c3f 91b4 c03c 32f7 4c3e 42b8 583c
00000240: 5415 9a3e a1d9 d5bc 2635 6bbe 0659 033f
00000250: ec48 febd 586b c13e e793 703c 4d24 c1be
00000260: 11f1 ec3e d484 083f d753 1cbf c426 873e
00000270: dc19 243c 9f83 e93e a1cd ed3e 4688 02be
00000280: 745f 4abe 420a ad3e 9f0c cebe bd27 613e
00000290: 4e6a 1c3f 187f cc3e 6037 e8bd b6d8 2d3c
000002a0: e623 633e b4d3 15be 6d10 d03e 06db ddbe
000002b0: 12e2 1dbf da86 003e d2ad cabd 79b7 923e
000002c0: 4f38 1b3f 6530 313e 737f c33e c4d1 13bf
000002d0: d137 26bf ea90 543f 53e4 54bf 030f 2dbf
000002e0: 103c 14bf e1a7 27bf 14da f73e baf5 433e
000002f0: b86c 0d3f 4b2a 383e 5099 a73d 6fa1 533e
00000300: 1b00 e0be ccf1 81be 08d0 333e a86a 093f
00000310: e01e 793d 9e1c 613d 5b66 013f 516f 0b3f
00000320: c889 20bc ff06 0abf c07e dd3e 5a74 a53e
00000330: 5a7a 1b3e 0111 aabe 9a7f 393f 2396 0f3f
00000340: 2be8 1abe 5f5f 9abe 191d dfbc 2b6b e93d
00000350: 688b c23e 9f1c 0ebf 44ae 973e 2874 aa3e
00000360: 9a82 5dbe a7e4 eb3e 8f19 fbbe 6789 0b3f
00000370: 0aa8 123e e7a9 a8be a9a1 613e 281d 00bf
00000380: 3aa0 de3e dfe7 143f 86a4 143f 8cfe 33bf
00000390: 9cca e53e c236 253d 5912 ee3e ebe9 903e
000003a0: d61e 1a3e 4ed3 06bf fdf8 833c 59de 253f
000003b0: 62f9 313e 93e0 923e 1c26 54bd 1f20 17bf
000003c0: 7eff 1e3f 1462 213f c094 26bd d6fa b3bd
000003d0: df00 273f c53f 933e 2955 86be f3c6 7a3c
000003e0: a6c9 7a3e 00d1 f6bd 74d3 af3c d463 203f
000003f0: 19f7 4fbd b424 1abe d560 4cbf 4e0d 123f

linear1.bias f4 [200]
0.043440085 0.4496455 -0.19696456 0.38586286 -0.14696918 0.24451755 -0.34144804 0.105142035
0.22204307 -0.7705056 -0.13032787 0.6931303 -0.43584225 0.52205867 -0.25540224 -0.6610125
-0.49283668 -0.0041840854 0.5316286 -0.62117755 -0.11522143 0.29760706 0.3657179 0.3728602
0.6423246 -0.37826315 0.5985673 -0.6959055 0.33563054 -0.16275641 0.11033173 0.69642645
-0.4659845 0.14736257 0.39247504 0.0008426721 -0.23941989 -0.44624215 0.12729818 0.516476
-0.5487016 0.57804334 -0.1649431 -0.5169289 0.030095499 0.6892856 0.17383298 0.16941336
0.04606747 -0.32107243 0.1525262 0.6381307 0.49933898 -0.4322841 0.15695913 -0.23850356
0.1445139 0.3581126 0.40397677 0.7226531 -0.2339146 0.09602797 -0.4553788 0.641643
0.5367802 0.47140488 -0.1790355 -0.47247177 -0.4735586 -0.2390128 0.62101364 0.31441015
-0.65076846 -0.14407207 0.09475726 0.040344726 -0.0074446825 0.13465458 0.3854514 -0.48803872
0.15907335 0.5204655 0.22623283 -0.18214041 -0.24707636 0.21370627 -0.55243343 0.5091127
0.5262722 -0.6839772 0.31527638 -0.006045229 -0.3352597 -0.5593832 -0.12500262 0.45998567
0.28748024 -0.2986824 -0.42454597 0.37340856 -0.26844075 -0.36257374 -0.063539125 0.16886608
-0.03177952 -0.32648358 0.010435744 0.5744677 -0.06654418 -0.10077231 0.15678976 0.19573171
-0.72414154 -0.4720723 0.10472003 0.42026317 -0.11105528 0.3859153 -0.19425476 -0.1986446
-0.20242855 -0.29429364 -0.57992303 -0.1995692 0.66502225 -0.058639854 -0.23673671 -0.41704592
0.22149791 0.03630453 -0.6351225 0.25673705 -0.5798577 -0.42911753 -0.11465157 0.09423187
0.6833692 -0.41803336 -0.31512392 0.398039 -0.25263 0.060550384 -0.6511088 0.253957
0.56231785 -0.5946875 -0.5648402 -0.41927204 0.48354375 0.3764869 0.19600572 0.6606887
0.6254644 0.38029087 -0.66310877 -0.09637767 -0.1994714 0.05727315 0.04844329 0.55380887
0.50137365 -0.5202894 0.7542243 -0.68270016 -0.40828538 0.51550645 -0.17832336 -0.2801127
0.50101566 0.5381308 -0.14254835 -0.30178526 0.05686808 -0.5676852 -0.40547198 0.50163007
-0.0934429 -0.08679761 -0.38568646 0.16076502 0.69013995 -0.25817743 -0.6147266 -0.08585189
0.098139726 -0.43396488 0.4984354 0.37110296 0.38039732 0.4765276 -0.4960186 -0.47086057
0.0015000814 -0.5577766 -0.014932704 -0.44657496 -0.23172137 -0.26253253 -0.46252412 -0.46293467
00000000: 3bee 313d ef37 e63e 14b1 49be d18f c53e
00000010: 177f 16be cf62 7a3e 47d2 aebe b554 d73d
00000020: 425f 633e db3f 45bf ab74 05be fd70 313f
00000030: b726 dfbe a3a5 053f 15c4 82be 1d38 29bf
00000040: 1755 fcbe a71a 89bb d018 083f 7e05 1fbf
00000050: 37f9 ebbd f45f 983e 603f bb3e 88e7 be3e
00000060: 636f 243f b5ab c1be b53b 193f dd26 32bf
00000070: c4d7 ab3e 9ea9 26be 9af5 e13d 0149 323f
00000080: 8595 eebe 37e6 163e 7df2 c83e c4e6 5c3a
00000090: 7d2a 75be da79 e4be 745a 023e c537 043f
000000a0: b577 0cbf a6fa 133f d8e6 28be 7455 04bf
000000b0: d68a f63c 0575 303f 4601 323e b27a 2d3e
000000c0: 3eb1 3c3d 9b63 a4be d42f 1c3e 895c 233f
000000d0: 5ca9 ff3e 5754 ddbe e5b9 203e 473a 74be
000000e0: 74fb 133e 895a b73e 0bd6 ce3e cbff 383f
000000f0: 4f87 6fbe 50aa c43d 6927 e9be b742 243f
00000100: 6d6a 093f fb5b f13e 1555 37be d2e7 f1be
00000110: 4676 f2be c5bf 74be c0fa 1e3f 5efa a03e
00000120: c398 26bf a187 13be 1810 c23d 8340 253d
00000130: 86f2 f3bb e4e2 093e e359 c53e 36e0 f9be
00000140: 20e4 223e 3a3d 053f 94a9 673e 0483 3abe
00000150: 9601 7dbe d1d5 5a3e 476c 0dbf 3655 023f
00000160: c6b9 063f 2119 2fbf e86b a13e 0e17 c6bb
00000170: 29a7 abbe bd33 0fbf b000 00be 3e83 eb3e
00000180: 9c30 933e e6ec 98be 175e d9be 682f bf3e
00000190: 1171 89be 44a3 b9be cd20 82bd 3beb 2c3e
000001a0: 3e2b 02bd db28 a7be affa 2a3c 5110 133f
000001b0: 5148 88bd b661 cebd 7f8d 203e e56d 483e
000001c0: 5761 39bf 76b3 f1be 7577 d63d bc2c d73e
000001d0: f370 e3bd b196 c53e b8ea 46be 7d69 4bbe
000001e0: 6e49 4fbe a8ad 96be d675 14bf de5b 4cbe
000001f0: e63e 2a3f 5830 70bd 1c6b 72be 0b87 d5be
00000200: 59d0 623e 0fb4 143d 6397 22bf 0a73 833e
00000210: 8e71 14bf 4bb5 dbbe 71ce eabd a3fc c03d
00000220: 49f1 2e3f 7808 d6be ec57 a1be c5cb cb3e
00000230: b858 81be ae03 783d 11af 26bf a706 823e
00000240: 10f4 0f3f 713d 18bf 5e99 10bf d3aa d6be
00000250: 0c93 f73e e4c2 c03e b9b5 483e e522 293f
00000260: 6f1e 203f 7cb5 c23e 7fc1 29bf a861 c5bd
00000270: 3b42 4cbe 4097 6a3d 796c 463d 6bc6 0d3f
00000280: 065a 003f b031 05bf d814 413f 70c5 2ebf
00000290: c80a d1be 3bf8 033f 669a 36be ef6a 8fbe
000002a0: 9042 003f f1c2 093f 32f8 11be 9983 9abe
000002b0: 81ee 683d d153 11bf 069a cfbe d46a 003f
000002c0: fe5e bfbd f2c2 b1bd b278 c5be 969f 243e
000002d0: 03ad 303f d52f 84be b95e 1dbf 1ed3 afbd
000002e0: 7bfd c83d a530 debe ed32 ff3e 3501 be3e
000002f0: 70c3 c23e 6dfb f33e 26f6 fdbe a314 f1be
00000300: 619e c43a 72ca 0ebf 4da8 74bc 79a5 e4be
00000310: 5e48 6dbe aa6a 86be f6cf ecbe c605 edbe

linear2.weight f4 [1, 200]
0.100720726 -0.1669004 0.03970332 0.109186165 0.014787886 0.4616616 -0.120447926 -0.06217108
-0.1928152 -0.31873038 0.24020396 0.017430896 -0.03067407 -0.11370003 0.1383647 0.040798835
-0.050339013 0.058445342 0.20208015 0.39545217 -0.020271327 -0.06575603 -0.43015656 0.11275887
-0.09005726 -0.058799613 0.0736364 0.03288874 -0.2236862 -0.055188272 0.017761415 -0.03656521
-0.053641077 -0.07041336 0.10360725 0.06300378 0.022402298 0.018893544 0.1796446 -0.23338978
0.027019558 -0.019591251 0.10563779 -0.36397263 0.08277148 -0.231914 0.027959846 -0.11714511
0.017173106 -0.037293673 -0.048955932 -0.11640007 0.07767213 -0.14701234 -0.13813633 0.16968104
-0.060059678 0.048945244 -0.12595066 -0.43894598 -0.005274058 -0.23240256 0.25926962 0.09431273
0.046850663 0.04224688 0.048579957 -0.11350069 0.2948197 -0.0032185614 -0.0149637135 0.024081564
-0.0179898 0.018985543 -0.061956298 -0.016695475 0.2219179 0.11705477 0.031910025 -0.063390434
-0.081244856 -0.026129778 0.2490764 0.02078935 0.025887756 -0.16299617 0.12958613 -0.06176258
0.08568194 0.19642855 -0.30344227 -0.45629358 -0.33626637 -0.15424077 0.010318474 -0.027027782
0.09444496 -0.08571229 -0.08503212 0.22988227 0.007865761 -0.13409679 0.03493291 0.38829428
0.059984203 -0.038652588 0.06692637 0.09440067 -0.07217059 0.038847115 0.008920179 -0.064787395
-0.21016428 0.30612895 -0.010649346 0.16848563 0.1337755 -0.0024199816 -0.037181646 -0.045585323
0.22089626 0.03125514 -0.12455049 0.010141739 0.011200288 -0.027769942 -0.040269356 0.44868731
0.14031257 0.052757166 -0.14999156 0.10784231 0.17808264 -0.1472859 -0.041214336 0.08102474
0.0030205422 0.26808217 -0.21298712 -0.2524393 0.22486964 -0.018874858 0.029053226 -0.04420172
-0.096885 -0.14460033 0.014501443 0.016132705 -0.29709312 -0.36073977 0.53173256 -0.22865503
0.10222836 -0.38376454 -0.13404846 0.27962306 -0.057374448 0.059082683 0.3349789 -0.14245683
-0.11430175 0.01531167 0.20889294 0.22065376 0.11307223 -0.029681886 -0.073076926 0.19727878
-0.07736948 0.17138435 -0.037733026 -0.16650106 -0.0287448 -0.17267874 0.4476618 -0.047303297
0.13529377 0.20655908 -0.36037683 0.03494992 0.1799946 -0.0070199054 0.34965584 -0.019315371
-0.09115755 0.1599122 0.015846208 0.098582126 -0.004289635 0.040245622 0.11055178 0.19056061
0.23217368 0.04231252 0.033046223 -0.12588194 -0.03536677 0.3144102 -0.15663518 -0.08491988
00000000: ab46 ce3d f0e7 2abe f39f 223d ff9c df3d
00000010: e448 723c e95e ec3e 67ad f6bd 1aa7 7ebd
00000020: 5971 45be a130 a3be 07f8 753e 3dcb 8e3c
00000030: 3048 fbbc 90db e8bd 7aaf 0d3e ae1c 273d
00000040: 4830 4ebd 6264 6f3d 19ee 4e3e b578 ca3e
00000050: 0e10 a6bc 19ab 86bd 7b3d dcbe 1fee e63d
00000060: f16f b8bd ddd7 70bd aece 963d 58b6 063d
00000070: ff0d 65be 190d 62bd 6380 913c 67c5 15bd
00000080: bfb6 5bbd e134 90bd 0a30 d43d 2008 813d
00000090: 0685 b73c a2c6 9a3c c1f4 373e bbfd 6ebe
000000a0: 1f58 dd3c d57d a0bc a058 d83d 9f5a babe
000000b0: 1884 a93d dd7a 6dbe 0c0c e53c c7e9 efbd
000000c0: 9dae 8c3c 40c1 18bd 0486 48bd 2963 eebd
000000d0: 9112 9f3d 678a 16be 9c73 0dbe dec0 2d3e
000000e0: 2301 76bd cf7a 483d 36f9 00be 87bd e0be
000000f0: 01d2 acbb f0fa 6dbe fdbe 843e 0827 c13d
00000100: 7be6 3f3d 100b 2d3d c7fb 463d 0d73 e8bd
00000110: 9cf2 963e 80ee 52bb 5d2a 75bc b346 c53c
00000120: 585f 93bc 9287 9b3c e3c5 7dbd f3c4 88bc
00000130: 723e 633e 69ba ef3d 16b4 023d d8d2 81bd
00000140: b463 a6bd 1e0e d6bc e20d 7f3e 6d4e aa3c
00000150: 8f12 d43c 78e8 26be 3ab2 043e c2fa 7cbd
00000160: 037a af3d 9124 493e c95c 9bbe 509f e9be
00000170: 1b2b acbe 4bf1 1dbe d10e 293c 5e69 ddbc
00000180: 5c6c c13d ed89 afbd 5225 aebd 4266 6b3e
00000190: 65df 003c ab50 09be d015 0f3d 82ce c63e
000001a0: ffb1 753d 2d52 1ebd b110 893d 2355 c13d
000001b0: 2dce 93bd 271e 1f3d f125 123c 41af 84bd
000001c0: 4e35 57be efbc 9c3e 987a 2ebc 7f87 2c3e
000001d0: 72fc 083e 8e98 1ebb c84b 18bd adb7 3abd
000001e0: a132 623e 6405 003d 5414 ffbd 8929 263c
000001f0: 6a81 373c ca7d e3bc 7bf1 24bd 58ba e53e
00000200: 19ae 0f3e e617 583d 6397 19be 6edc dc3d
00000210: 4c5b 363e 1dd2 16be 5dd0 28bd 4df0 a53d
00000220: 4af4 453b 1142 893e 4c19 5abe b93f 81be
00000230: 3a44 663e 729f 9abc 0801 ee3c dd0c 35bd
00000240: a56b c6bd 1c12 14be 7697 6d3c bc28 843c
00000250: 971c 98be e2b2 b8be a01f 083f 8b24 6abe
00000260: 1a5d d13d c97c c4be 0044 09be c12a 8f3e
00000270: 7801 6bbd af00 723d 5b82 ab3e 34e0 11be
00000280: 0917 eabd ccdd 7a3c 08e8 553e 0ff3 613e
00000290: 6a92 e73d 6d27 f3bc 5ba9 95bd 7303 4a3e
000002a0: e473 9ebd 617f 2f3e f28d 1abd 417f 2abe
000002b0: 377a ebbc b2d2 30be ed33 e53e 1ac1 41bd
000002c0: 738a 0a3e 3984 533e 5083 b8be a627 0f3d
000002d0: 8150 383e 3c07 e6bb 1706 b33e 453b 9ebc
000002e0: cfb0 babd 06c0 233e e8cf 813c 6de5 c93d
000002f0: 1190 8cbb 98d8 243d f968 e23d 5222 433e
00000300: f0be 6d3e e54f 2d3d 7a5b 073d 32e7 00be
00000310: bfdc 10bd 60fa a03e f964 20be 79ea adbd
